…
  (rbf): GaussianRadialBasisLayer(mean_init_max=1.0, mean_init_min=0, std_init_max=1.0, std_init_min=0.0078125)
  (edge_deg_embed): EdgeDegreeEmbeddingNetwork(
    (exp): LinearRS(
      (tp): TensorProduct(1x0e x 1x0e -> 128x0e+64x1e+32x2e | 128 paths | 128 weights)
      (bias): ParameterList(  (0): Parameter containing: [torch.FloatTensor of size 128])
    )
    (dw): TensorProductRescale(
      (tp): TensorProduct(128x0e+64x1e+32x2e x 1x0e+1x1e+1x2e -> 224x0e+384x1e+352x2e | 960 paths | 960 weights)
      (bias): ParameterList()
    )
    (rad): RadialProfile(
      (net): Sequential(
        (0): Linear(in_features=128, out_features=64, bias=True)
        (1): LayerNorm((64,), eps=1e-05, elementwise_affine=True)
        (2): SiLU()
        (3): Linear(in_features=64, out_features=64, bias=True)
        (4): LayerNorm((64,), eps=1e-05, elementwise_affine=True)
        (5): SiLU()
        (6): Linear(in_features=64, out_features=960, bias=False)
      )
    )
    (proj): LinearRS(
      (tp): TensorProduct(224x0e+384x1e+352x2e x 1x0e -> 128x0e+64x1e+32x2e | 64512 paths | 64512 weights)
      (bias): ParameterList(  (0): Parameter containing: [torch.FloatTensor of size 128])
    )
    (scale_scatter): ScaledScatter(avg_aggregate_num=15.57930850982666)
  )
  (blocks): ModuleList(
    (0): TransBlock(
…
    )
  )
  (rbf): RadialBasis(
    (envelope): PolynomialEnvelope()
    (rbf): SphericalBesselBasis()
  )
  (edge_deg_embed): EdgeDegreeEmbeddingNetwork(
    (exp): LinearRS(
      (tp): TensorProduct(1x0e x 1x0e -> 128x0e+64x1e+32x2e | 128 paths | 128 weights)
      (bias): ParameterList(  (0): Parameter containing: [torch.FloatTensor of size 128])
    )
    (dw): TensorProductRescale(
      (tp): TensorProduct(128x0e+64x1e+32x2e x 1x0e+1x1e+1x2e -> 224x0e+384x1e+352x2e | 960 paths | 960 weights)
      (bias): ParameterList()
    )
    (rad): RadialProfile(
      (net): Sequential(
        (0): Linear(in_features=8, out_features=64, bias=True)
        (1): LayerNorm((64,), eps=1e-05, elementwise_affine=True)
        (2): SiLU()
        (3): Linear(in_features=64, out_features=64, bias=True)
        (4): LayerNorm((64,), eps=1e-05, elementwise_affine=True)
        (5): SiLU()
        (6): Linear(in_features=64, out_features=960, bias=False)
      )
    )
    (proj): LinearRS(
      (tp): TensorProduct(224x0e+384x1e+352x2e x 1x0e -> 128x0e+64x1e+32x2e | 64512 paths | 64512 weights)
      (bias): ParameterList(  (0): Parameter containing: [torch.FloatTensor of size 128])
    )
    (scale_scatter): ScaledScatter(avg_aggregate_num=15.57930850982666)
  )
  (blocks): ModuleList(
    (0): TransBlock(
…
